MainProject_v1/projectSettings/App/ChatBot/data.pth (torch, 5249 bytes, 6 tensors)

l1.weight f4 [8, 54]
00000000: 944b 1e3f 9534 a53e 83d4 1fbf 5ddb 47be
00000010: b766 b83c ba43 e6be 9abc ebbd e078 00bf
00000020: c7e0 d6be 412a adbe 970c 0dbc 88a9 60bd
00000030: c737 843e bb51 ca3e 6844 143e 80cb a63c
00000040: fe6a bd3b 195f e9be 23cb be3e cb88 033e
00000050: c50e 203f 18f6 cdbc cf76 4ebd 811a 083e
00000060: 614d 41be e9b4 8e3d d862 103f fc92 1b3e
00000070: afd4 9f3e b186 d63d 37c4 d8be 9c6e b83e
00000080: 637c e13e 07f8 f2be b5b2 823e 4cc6 4eb9
00000090: 7a0a bf3e 3557 e3be 8343 25be 5bef a5bc
000000a0: 3024 8cbe 3d6a 203f c353 373e 8518 573e
000000b0: f976 67bd 508c 6a3e 8f11 6a3f 4798 1a3f
000000c0: 447d 853e 7175 fe3e a3ce b8bd 37bf df3e
000000d0: 26a4 d5bd 7e03 813e a9c3 ebbc 16c1 57be
000000e0: 2301 873e 9321 fd3e 057d a53e d9ed b53e
000000f0: 3280 353e 69fd 8a3e 251d 223e 72f3 033e
00000100: 6400 163f 21ef 8abe f2f6 b8bd 8410 d3be
00000110: 028c 5cbe 6678 9abd 4cf0 db3e f8cc e53d
00000120: 7230 37be b274 3c3f 24b6 5d3e a231 333f
00000130: 794a 0f3f f5a8 ee3e 8fd5 d33d 2e9d c63e
00000140: 419b dcbe dc0c 99be a43c 05be 69f3 afbe
00000150: 87a8 9b3e 880e abbe f2b1 4a3c 11bd ff3e
00000160: 54e0 5ebe 5368 81be 8b00 47be 4967 4cbd
00000170: d582 283e d9f6 513e 7e36 9c3e 5777 babe
00000180: adab 92be 461a 20be adec 7cbe 6ef7 2cbe
00000190: 12bf e7be d0e0 523e 66ec 333e af52 fabe
000001a0: f768 72be 9955 64be bda5 593e 52fd f83d
000001b0: 3483 393f ac05 97be cc6b fcbd 953f 98be
000001c0: 7b28 263d 5978 6c3f 598a ca3d 4b86 b0be
000001d0: aef8 7a3e 6e7a b0be 9693 43be f653 693e
000001e0: bc3d c63e 49a2 8abd 2446 e5bd d4ac 953e
000001f0: e093 ffbd 153e 363f 734f da3e 95b8 cfbe
00000200: 7401 023f c4d9 9dbe c7bd b8be 482c 38bf
00000210: de34 a93e c4c9 e2bd 3f41 243f 0012 1dbf
00000220: 6c5d bd3e d0e6 0bbf 6fc0 393f c4ec a43d
00000230: b828 123f aedb 41bd 8237 1cbe d645 9e3d
00000240: 3c6f 003f 7cc2 863e 1e5e cfbc 85fd 983c
00000250: a5e0 193f 3d65 223f 119f bcba 043d 32be
00000260: 1c3f c2be 4628 2fbe 45fa 823f 5788 183f
00000270: bd9b 613e 85b5 033f faff d03d df95 9c3e
00000280: e966 aa3c 20c5 ea3e 4958 34be 89f0 063f
00000290: aafc 1d3f 00b6 e23e 27d0 4a3f e43e 2ebf
000002a0: cb85 0d3f d3be eb3e 5904 263f 7755 c13e
000002b0: 8d6f 1b3f 42d1 afbe bdde 143f ee57 9bbe
000002c0: 7375 d13e a7f9 3cbe 1138 163f 216d 27bf
000002d0: 226b fb3e 9c06 053f d550 b2bd f3a9 1b3f
000002e0: 80a9 333f 7aaa ab3e a2b2 3cbd 05b6 c03e
000002f0: a883 e93e c41f c63e e69a 893e 0145 083f
00000300: 180b 09bf b6bd 89be 7739 c3bd 0e18 fb3e
00000310: bd85 eb3e 874d 87be e021 8e3e fd31 0e3f
00000320: e443 073f 4108 e43e 4eef ddbe 7d9d f23e
00000330: 2eaa b1be bf5f a13e 91ce d7bd 46eb 053f
00000340: 268b acbe 416c 883b ea02 c43e 4350 f63e
00000350: 3cf6 34be 19d2 b13e 8ce5 203f 574e 963e
00000360: 3d1d bebe 003f 393f e714 3b3e 7f17 94bd
00000370: b079 06bf 1c25 b7be 6e18 a63e 198b 54be
00000380: 5ebf 833d b910 2fbe c4b1 12be 2336 4b3f
00000390: 013a e03e 7020 5e3f bb57 1b3f fc11 1a3f
000003a0: da8d 5bbe ea27 b7be f3be 70be b62e b7be
000003b0: d564 02bc 831e b7be 3a52 b7be 7733 cf3e
000003c0: c965 fe3e 0b7d b0bd 67be 64be f3a1 153f
000003d0: ea26 3ebd 9a33 e53e d612 76bd 3e3b 503f
000003e0: 1adb 7ebe 3904 e23c c725 f13e 0617 1e3f
000003f0: ae83 b5bd 68e3 0ebd b8b5 ec3d aa30 a93e
0.61834073 0.3226668 -0.6243364 -0.19517274 0.022509916 -0.44973546 -0.11510582 -0.5018444
-0.41968367 -0.338213 -0.008608959 -0.054849178 0.25823805 0.3951548 0.1447922 0.020360708
0.0057805767 -0.45580366 0.37264356 0.12845151 0.62522537 -0.02514176 -0.050406273 0.1329136
-0.18877174 0.069680996 0.56400824 0.15192789 0.31216952 0.10474909 -0.423372 0.36021888
0.44040212 -0.47454855 0.25526968 -0.00019719562 0.3731268 -0.4440247 -0.16139035 -0.020255735
-0.2737136 0.62662107 0.17903046 0.21005447 -0.056509946 0.22905087 0.9143304 0.60388607
0.26072133 0.49698976 -0.09023788 0.43700573 -0.104316995 0.25197977 -0.028779821 -0.2106975
0.26368055 0.49439678 0.32321945 0.35533026 0.17724684 0.27146462 0.1583143 0.12885836
0.58594346 -0.27135566 -0.09031476 -0.41223538 -0.21537784 -0.075424954 0.4295677 0.11220735
-0.17889574 0.7361556 0.21651512 0.6999761 0.5597301 0.4661328 0.103434674 0.38791794
-0.430872 -0.29892623 -0.13011414 -0.34365395 0.30402014 -0.33409524 0.012371527 0.49948934
-0.21765262 -0.25274906 -0.19433801 -0.049903188 0.16456158 0.20504321 0.30510324 -0.36419174
-0.28646603 -0.15635023 -0.2469966 -0.16891262 -0.45262963 0.20593572 0.17570648 -0.48891208
-0.23672853 -0.22298278 0.2125463 0.12157692 0.72465825 -0.29496515 -0.12325248 -0.2973601
0.04056595 0.92371136 0.09889669 -0.34477457 0.24508926 -0.34468406 -0.19099268 0.22785935
0.38718975 -0.06769235 -0.11195019 0.2923342 -0.12479377 0.7118848 0.4263874 -0.40570512
0.5078347 -0.30830204 -0.3608229 -0.7194257 0.33048147 -0.1107364 0.6416206 -0.6135559
0.36985338 -0.54649067 0.72559255 0.08052972 0.5709338 -0.047328644 -0.1525555 0.07728164
0.5016973 0.26320255 -0.025313433 0.018675575 0.60108405 0.6343573 -0.0014390667 -0.17406088
-0.37938774 -0.17105207 1.0232626 0.5958304 0.22032066 0.5144885 0.10205074 0.30583093
0.020801025 0.4585352 -0.17611803 0.5271078 0.6171366 0.4427948 0.79223865 -0.68064713
0.55282277 0.46044025 0.64850384 0.37760517 0.6071709 -0.3433934 0.5815237 -0.30340523
0.4090992 -0.1845461 0.586793 -0.6540089 0.49105173 0.5196321 -0.08706824 0.60806197
0.7018051 0.335285 -0.046068795 0.3763887 0.45608258 0.3869611 0.2687599 0.5323029
-0.5353255 -0.2690255 -0.09532445 0.4904179 0.46000472 -0.26426336 0.2776022 0.55545026
0.5283797 0.44537547 -0.43346637 0.4738578 -0.3470015 0.3151836 -0.10537446 0.52312124
-0.33699912 0.0041632955 0.38283473 0.4810811 -0.17672056 0.34730604 0.6285026 0.29356644
-0.37131682 0.72361755 0.18269692 -0.07231044 -0.5252943 -0.357705 0.32440513 -0.20756187
0.06432985 -0.17096223 -0.14325625 0.7937948 0.43794253 0.86768246 0.6068074 0.6018369
-0.21440831 -0.3577264 -0.23510341 -0.35777825 -0.007958611 -0.35765466 -0.3580492 0.40468952
0.4968703 -0.086176 -0.22338258 0.5845024 -0.04642383 0.4476593 -0.060076557 0.81340396
-0.24888268 0.027589904 0.47099134 0.6175388 -0.088630065 -0.03488484 0.115580976 0.3304494

l1.bias f4 [8]
00000000: 4dde 163f 8157 523f 72df 1b3f 4589 303f
00000010: e421 b73e 4f9c edbd 3b3c f13e 4477 373f
0.58932954 0.8216477 0.60887825 0.68959457 0.35768044 -0.11602079 0.47116265 0.7166636

l2.weight f4 [8, 8]
00000000: 5986 203d ff42 ab3d a6df 19bb 1373 1bbd
00000010: 30ee 93be 1332 ce3d ac6a ec3d 4aa1 4abe
00000020: 0426 3c3e 1cbf d8be 03b7 323f 3d2d 9b3e
00000030: 1fc8 0dbf 5851 26be 1987 a23f bf8c 5d3e
00000040: a6a5 57be 2b73 19be efd1 c93f 5a31 2abf
00000050: d1c3 8c3e 2d29 88be 9860 ea3e fa90 963f
00000060: cd28 e53d a38d 883e 460b 04bf f713 c53f
00000070: 1ad8 903e e725 a33e e3a8 803f b8bb 99be
00000080: 79ce a13f 6cbb 85bf 3ee6 1d3f 216d 9d3e
00000090: db60 9b3f 8bf0 063e 23f6 e33e d526 0abf
000000a0: 1e65 4a3f 03d8 2f3f 4113 8d3e 56db 6e3f
000000b0: eb20 4cbf 652b 3c3e c141 81bf 028d 14bd
000000c0: 6995 683f 0076 5f3f 9433 a93f 2a97 ec3e
000000d0: 7d83 7cbf 877c 373d 384d 91be b28d bbbd
000000e0: 4e49 6dbf 1434 873f 9461 65bd 68e1 433f
000000f0: 9931 e6bd ed4a 9b3e 1e7b 803f ec20 a23f
0.039190624 0.08362388 -0.0023479252 -0.03795154 -0.2889266 0.10068145 0.115437835 -0.1978809
0.18373877 -0.42333305 0.69810504 0.30307952 -0.55383486 -0.16241968 1.2697479 0.21635722
-0.21059284 -0.1498534 1.5767192 -0.66481555 0.27493146 -0.26593915 0.4577682 1.1762993
0.11189423 0.2667056 -0.515797 1.5396718 0.28289872 0.31864855 1.005154 -0.3002603
1.2641135 -1.0447822 0.61679447 0.3074732 1.2138933 0.13177697 0.44523725 -0.539655
0.7906054 0.6868898 0.27553752 0.9330343 -0.7973773 0.18375929 -1.0098191 -0.036267288
0.9085298 0.8728943 1.3218865 0.4620908 -0.98638135 0.044796493 -0.28379226 -0.091578856
-0.9268998 1.0562768 -0.05600126 0.7651582 -0.11239929 0.303306 1.0037572 1.2666297

l2.bias f4 [8]
00000000: 99c3 a2be c6eb 2fbe 5044 023f 9627 093d
00000010: ffa1 e93e 8b6e 423f ff13 443f dc20 e23e
-0.31789854 -0.17179784 0.50885487 0.033485018 0.45631406 0.75949925 0.7659301 0.44165695

l3.weight f4 [7, 8]
00000000: a6ea 05be 0f3c 7fbf 2d96 6c3f 69d7 4bbf
00000010: 99ba 2b3f c044 bbbe 95b7 5fbf 66bb 92be
00000020: a55a 8fbd 2d97 7dbc 7ed6 8fbf 39a2 473f
00000030: 26fb 1e3f 942a 1cbf e439 26bf ecb2 c9be
00000040: e28f 62be 867c 2e3e 3df6 693f e9b6 d3bf
00000050: c77f a4bf 1612 5cbe ba09 b33e 1a98 d93e
00000060: ccce 6dbe 4c13 82bf 8796 91bf e05a 183f
00000070: 5b8e 7dbf ea9c 493f 4639 f23e 5ee7 8c3e
00000080: a5ef d8bc 3137 ed3e 2825 9bbc 7c68 713e
00000090: a6c6 533e d5dc 72be d4a2 9f3e 6b8d 2dbf
000000a0: 2d7f a8bd 1b7e 0f3e 94ff 753d c08c d13e
000000b0: 2554 5abf 0a33 c8be f5f3 2ebe 22d5 db3e
000000c0: f5cf 803e 0728 85be 946d 353e 3194 bcbf
000000d0: 2e4b 113f 0595 bd3e ecd8 613f 59b6 adbf
-0.13077793 -0.9970102 0.9241665 -0.79625565 0.670816 -0.3657589 -0.873895 -0.286586
-0.06999711 -0.015477938 -1.1237333 0.7798191 0.6210197 -0.6100247 -0.64932084 -0.3939432
-0.221252 0.1703969 0.91391355 -1.6540195 -1.2851495 -0.21491274 0.34968358 0.42498857
-0.23223418 -1.0162139 -1.1374062 0.59513664 -0.9904534 0.78755057 0.4730932 0.2752027
-0.026481459 0.4633117 -0.018938616 0.23575014 0.20681247 -0.23717053 0.31178916 -0.6779391
-0.08227382 0.14012949 0.06005819 0.40927696 -0.85284644 -0.3910144 -0.1708525 0.42936045
0.2515866 -0.260071 0.17717582 -1.4732724 0.5675534 0.37027755 0.8822162 -1.3571273

l3.bias f4 [7]
00000000: 03d1 c43e 17c1 003e 7940 543d 1396 153f
00000010: f8f7 31bf d6fb 84be 30b1 ac3e
0.38440713 0.12573658 0.0518193 0.5843212 -0.69518995 -0.25973386 0.33728933
